FastNegativeV2-SDXL.safetensors (safetensors, 274584 bytes, 2 tensors)

clip_g f2 [67, 1280]
00000000: 0000 0000 0000 0000 0000 0000 0000 0000
00000010: 0000 0000 0000 0000 0000 0000 0000 0000
00000020: 0000 0000 0000 0000 0000 0000 0000 0000
00000030: 0000 0000 0000 0000 0000 0000 0000 0000
00000040: 0000 0000 0000 0000 0000 0000 0000 0000
00000050: 0000 0000 0000 0000 0000 0000 0000 0000
00000060: 0000 0000 0000 0000 0000 0000 0000 0000
00000070: 0000 0000 0000 0000 0000 0000 0000 0000
00000080: 0000 0000 0000 0000 0000 0000 0000 0000
00000090: 0000 0000 0000 0000 0000 0000 0000 0000
000000a0: 0000 0000 0000 0000 0000 0000 0000 0000
000000b0: 0000 0000 0000 0000 0000 0000 0000 0000
000000c0: 0000 0000 0000 0000 0000 0000 0000 0000
000000d0: 0000 0000 0000 0000 0000 0000 0000 0000
000000e0: 0000 0000 0000 0000 0000 0000 0000 0000
000000f0: 0000 0000 0000 0000 0000 0000 0000 0000
00000100: 0000 0000 0000 0000 0000 0000 0000 0000
00000110: 0000 0000 0000 0000 0000 0000 0000 0000
00000120: 0000 0000 0000 0000 0000 0000 0000 0000
00000130: 0000 0000 0000 0000 0000 0000 0000 0000
00000140: 0000 0000 0000 0000 0000 0000 0000 0000
00000150: 0000 0000 0000 0000 0000 0000 0000 0000
00000160: 0000 0000 0000 0000 0000 0000 0000 0000
00000170: 0000 0000 0000 0000 0000 0000 0000 0000
00000180: 0000 0000 0000 0000 0000 0000 0000 0000
00000190: 0000 0000 0000 0000 0000 0000 0000 0000
000001a0: 0000 0000 0000 0000 0000 0000 0000 0000
000001b0: 0000 0000 0000 0000 0000 0000 0000 0000
000001c0: 0000 0000 0000 0000 0000 0000 0000 0000
000001d0: 0000 0000 0000 0000 0000 0000 0000 0000
000001e0: 0000 0000 0000 0000 0000 0000 0000 0000
000001f0: 0000 0000 0000 0000 0000 0000 0000 0000
0.0 0.0 0.0 0.0 0.0 0.0 0.0 0.0
0.0 0.0 0.0 0.0 0.0 0.0 0.0 0.0
0.0 0.0 0.0 0.0 0.0 0.0 0.0 0.0
0.0 0.0 0.0 0.0 0.0 0.0 0.0 0.0
0.0 0.0 0.0 0.0 0.0 0.0 0.0 0.0
0.0 0.0 0.0 0.0 0.0 0.0 0.0 0.0
0.0 0.0 0.0 0.0 0.0 0.0 0.0 0.0
0.0 0.0 0.0 0.0 0.0 0.0 0.0 0.0
0.0 0.0 0.0 0.0 0.0 0.0 0.0 0.0
0.0 0.0 0.0 0.0 0.0 0.0 0.0 0.0
0.0 0.0 0.0 0.0 0.0 0.0 0.0 0.0
0.0 0.0 0.0 0.0 0.0 0.0 0.0 0.0
0.0 0.0 0.0 0.0 0.0 0.0 0.0 0.0
0.0 0.0 0.0 0.0 0.0 0.0 0.0 0.0
0.0 0.0 0.0 0.0 0.0 0.0 0.0 0.0
0.0 0.0 0.0 0.0 0.0 0.0 0.0 0.0
0.0 0.0 0.0 0.0 0.0 0.0 0.0 0.0
0.0 0.0 0.0 0.0 0.0 0.0 0.0 0.0
0.0 0.0 0.0 0.0 0.0 0.0 0.0 0.0
0.0 0.0 0.0 0.0 0.0 0.0 0.0 0.0
0.0 0.0 0.0 0.0 0.0 0.0 0.0 0.0
0.0 0.0 0.0 0.0 0.0 0.0 0.0 0.0
0.0 0.0 0.0 0.0 0.0 0.0 0.0 0.0
0.0 0.0 0.0 0.0 0.0 0.0 0.0 0.0
0.0 0.0 0.0 0.0 0.0 0.0 0.0 0.0
0.0 0.0 0.0 0.0 0.0 0.0 0.0 0.0
0.0 0.0 0.0 0.0 0.0 0.0 0.0 0.0
0.0 0.0 0.0 0.0 0.0 0.0 0.0 0.0
0.0 0.0 0.0 0.0 0.0 0.0 0.0 0.0
0.0 0.0 0.0 0.0 0.0 0.0 0.0 0.0
0.0 0.0 0.0 0.0 0.0 0.0 0.0 0.0
0.0 0.0 0.0 0.0 0.0 0.0 0.0 0.0

clip_l f2 [67, 768]
00000000: 1da4 e39e 179d 8228 948a 4824 f419 82a2
00000010: 8a22 549b a91c 32a1 31a8 8e9d 0121 45a8
00000020: 6b26 4520 ad09 491e 7d1c 96a1 7e9d 419c
00000030: 3096 b725 18a1 561e cf28 0ca5 ff18 9924
00000040: d81e 28a1 2d26 519c 95a7 9b9e a10d b01c
00000050: e123 eaa4 8da5 3194 3a99 bc1e 2024 36a4
00000060: dd9b 1ea0 6916 81a8 f31d 15a0 ae20 59a1
00000070: 0499 9c96 0826 4825 af96 99a4 39a6 d9a4
00000080: 4e89 6121 7a24 c922 ec12 f7a2 a09e 931d
00000090: f19f 4528 489f 4e99 d49c f8a0 54a5 8793
000000a0: b49b 67a4 4922 7e23 1ca6 0b15 6d9b 6321
000000b0: be97 c88e 071d 9d20 9722 2ea4 2c9f ac9e
000000c0: b822 0f98 d81c 90a4 cca5 9996 a01c 3121
000000d0: f1a2 c416 d6a3 1a1c a023 a8a4 dc1b 7ea4
000000e0: ee23 6096 459c f7a4 b027 369d 70a4 5f9f
000000f0: 5ca0 6e24 e4a4 6b9d 5224 1121 8393 f09a
00000100: 4d9e 4ea5 b8a2 2c27 dd25 9b98 b1a1 6324
00000110: e120 7e21 1f21 2697 b892 0a15 9a22 ed1b
00000120: 6721 3023 3c1e a7a4 3f24 3521 b3a8 4e23
00000130: e7a2 cd02 9b9f c9a2 b123 e79b 1da1 aca3
00000140: 9a23 4724 a51c 3224 9f23 dc24 1ca4 3e0c
00000150: 98a1 d29a 469c bea6 83a3 49a1 4621 fd20
00000160: f6a2 c399 a918 629d f096 e320 e9a2 039d
00000170: 3ca0 4e9a 6f9d 83a5 e824 9721 7214 de21
00000180: 9625 aea0 dc9c a222 e5a0 b417 4d22 4aa1
00000190: 3124 349d cca2 7c20 76a3 7da0 3623 1b93
000001a0: 2a93 b296 be21 99a5 2715 12a0 4f9f a226
000001b0: ba21 2d20 5b92 321a a218 6320 421b ba9f
000001c0: 1f1d d809 df1d 5820 441d 42a8 589f 1fa2
000001d0: fba6 4da2 27a7 ad1e 7c25 2e21 9222 829b
000001e0: 0820 b6a3 e022 6c93 d426 7a18 5fa2 3c9f
000001f0: f614 6798 f49c 3fa1 929e f1a3 7b9c 8197
-0.01607 -0.006725 -0.00497 0.03522 -0.0002007 0.01672 0.002907 -0.01271
0.01277 -0.003578 0.00455 -0.01015 -0.03275 -0.005424 0.00977 -0.03336
0.02507 0.00834 0.0001732 0.006138 0.004383 -0.01091 -0.005363 -0.004154
-0.001511 0.02232 -0.00995 0.006187 0.03757 -0.01971 0.00244 0.01796
0.006683 -0.01007 0.02412 -0.004215 -0.02962 -0.00645 0.0003436 0.004578
0.01539 -0.0192 -0.02168 -0.001023 -0.002552 0.006577 0.01611 -0.01645
-0.00384 -0.00804 0.001565 -0.0352 0.00581 -0.00797 0.00914 -0.010445
-0.002449 -0.001614 0.02356 0.02063 -0.001632 -0.01796 -0.0243 -0.01894
-0.0001619 0.010506 0.01749 0.01325 0.000845 -0.0136 -0.00647 0.005444
-0.007755 0.03336 -0.00711 -0.00259 -0.004715 -0.009705 -0.02081 -0.000919
-0.003761 -0.0172 0.012276 0.01463 -0.02386 0.001231 -0.003626 0.01052
-0.00189 -0.000414 0.00491 0.00901 0.01287 -0.01633 -0.007004 -0.006516
0.01312 -0.001982 0.00473 -0.01782 -0.02264 -0.001611 0.004517 0.01014
-0.01356 0.001652 -0.015305 0.004005 0.01489 -0.01819 0.003838 -0.01755
0.01549 -0.001556 -0.00417 -0.0194 0.03003 -0.00509 -0.01733 -0.0072
-0.008514 0.0173 -0.0191 -0.00529 0.01688 0.009895 -0.000917 -0.003387
-0.006153 -0.02072 -0.01312 0.02802 0.0229 -0.002249 -0.011116 0.01714
0.00953 0.01073 0.01 -0.001745 -0.00082 0.00123 0.01289 0.00387
0.01055 0.01404 0.00609 -0.01817 0.01659 0.01017 -0.0367 0.01427
-0.01348 4.274e-05 -0.007427 -0.01325 0.01502 -0.003859 -0.00999 -0.014984
0.01485 0.01671 0.004536 0.01639 0.014885 0.01898 -0.01605 0.000259
-0.010925 -0.00333 -0.004173 -0.02634 -0.01467 -0.01032 0.0103 0.00974
-0.013596 -0.002813 0.002275 -0.005257 -0.001694 0.009544 -0.0135 -0.004894
-0.00827 -0.003078 -0.005306 -0.02153 0.01917 0.01092 0.001085 0.01146
0.02182 -0.00914 -0.004745 0.012955 -0.00956 0.001881 0.01231 -0.01033
0.01637 -0.00508 -0.013275 0.00876 -0.01457 -0.008766 0.014084 -0.0008674
-0.0008745 -0.001635 0.011215 -0.02187 0.001258 -0.00795 -0.007137 0.02591
0.011185 0.008156 -0.000776 0.003025 0.002262 0.00857 0.003544 -0.007545
0.005 0.0001783 0.005733 0.008484 0.005142 -0.03326 -0.00717 -0.011955
-0.02727 -0.01231 -0.02794 0.00652 0.02142 0.01012 0.01283 -0.003666
0.00787 -0.01506 0.01343 -0.000906 0.02667 0.002186 -0.01244 -0.007065
0.001211 -0.00215 -0.004837 -0.01025 -0.006416 -0.01551 -0.004375 -0.001832
